PyTorch version:2.1.2
Total dataset size (input/target pairs): 40
Receptive field: 52429 samples or 1188.9 ms
==========================================================================================
Layer (type:depth-idx)                   Output Shape              Param #
==========================================================================================
GCN1D                                    [1, 1, 44100]             --
├─ModuleList: 1-1                        --                        --
│    └─GCN1DBlock: 2-1                   [1, 32, 44100]            --
│    │    └─Conv1dCausal: 3-1            [1, 64, 44100]            832
│    │    └─FiLM: 3-2                    [1, 64, 44100]            512
│    │    └─GatedAF: 3-3                 [1, 32, 44100]            --
│    │    └─Conv1d: 3-4                  [1, 32, 44100]            32
│    └─GCN1DBlock: 2-2                   [1, 32, 44100]            --
│    │    └─Conv1dCausal: 3-5            [1, 64, 44100]            26,624
│    │    └─FiLM: 3-6                    [1, 64, 44100]            512
│    │    └─GatedAF: 3-7                 [1, 32, 44100]            --
│    │    └─Conv1d: 3-8                  [1, 32, 44100]            1,024
│    └─GCN1DBlock: 2-3                   [1, 32, 44100]            --
│    │    └─Conv1dCausal: 3-9            [1, 64, 44100]            26,624
│    │    └─FiLM: 3-10                   [1, 64, 44100]            512
│    │    └─GatedAF: 3-11                [1, 32, 44100]            --
│    │    └─Conv1d: 3-12                 [1, 32, 44100]            1,024
│    └─GCN1DBlock: 2-4                   [1, 32, 44100]            --
│    │    └─Conv1dCausal: 3-13           [1, 64, 44100]            26,624
│    │    └─FiLM: 3-14                   [1, 64, 44100]            512
│    │    └─GatedAF: 3-15                [1, 32, 44100]            --
│    │    └─Conv1d: 3-16                 [1, 32, 44100]            1,024
├─Conv1d: 1-2                            [1, 1, 44100]             32
├─Tanh: 1-3                              [1, 1, 44100]             --
==========================================================================================
Total params: 85,888
Trainable params: 85,888
Non-trainable params: 0
Total mult-adds (Units.GIGABYTES): 3.70
==========================================================================================
Input size (MB): 0.18
Forward/backward pass size (MB): 135.83
Params size (MB): 0.34
Estimated Total Size (MB): 136.35
…
